model1_vanilla7_weights.pth (torch, 374977 bytes, 29 tensors)

cnn_layer.0.parametrizations.weight.original0 f4 [64, 1, 1, 1]
000000 c9 fc 03 3f d4 d4 ff 3e 6f 3d 08 3f 9c 35 1f 3f
       0.51557595 0.49967062 0.5321874 0.62191176
000010 d7 c6 08 3f 95 ef 05 3f 96 10 0a 3f 6e d8 33 3f
       0.53428406 0.523187 0.5393156 0.7025212
000020 42 0c 21 3f b4 65 15 3f 45 07 17 3f f9 7f 0f 3f
       0.6290933 0.5835831 0.5899547 0.56054646
000030 3b ed 2d 3f 5e 39 0d 3f 58 68 1c 3f c5 8e 1c 3f
       0.6794011 0.5516566 0.61096716 0.6115535
000040 80 db 2b 3f 24 43 f0 3e f1 51 15 3f b8 53 0b 3f
       0.67131805 0.46926224 0.5832816 0.5442462
000050 9b 15 08 3f ae 4e 08 3f 64 19 28 3f 2c a5 de 3e
       0.5315797 0.53245056 0.65663743 0.4348539
000060 9d ac 23 3f 9d fe 05 3f 1a 44 01 3f 1f 45 25 3f
       0.6393526 0.52341634 0.5049454 0.64558595
000070 f9 d4 13 3f 09 03 ef 3e 5b 62 08 3f 78 4e 19 3f
       0.57746845 0.46682003 0.5327508 0.5988536
000080 1b 76 1e 3f 90 9e 24 3f 4e e6 07 3f 73 8d 07 3f
       0.61898965 0.6430445 0.5308579 0.5295021
000090 3c 9c 29 3f 99 c4 06 3f 63 8d 20 3f 92 5b 1e 3f
       0.6625402 0.52643734 0.6271574 0.61858475
0000a0 f8 10 da 3e 4f a7 fb 3e 37 3c d0 3e e5 64 fd 3e
       0.4259107 0.49151084 0.4067094 0.4949104
0000b0 ef 0b 13 3f 5d b5 15 3f 01 ba 12 3f 72 32 1f 3f
       0.57440084 0.58479863 0.5731507 0.6218635
0000c0 57 c8 24 3f 6b a2 0e 3f e5 b8 11 3f 15 3b 0e 3f
       0.64368194 0.5571658 0.5692275 0.555589
0000d0 25 39 19 3f 38 95 1d 3f d6 b2 19 3f a1 9e 02 3f
       0.5985282 0.61555815 0.60038507 0.510233
0000e0 03 95 07 3f 93 b1 0d 3f 7c d8 ef 3e 4b 0a 0e 3f
       0.5296175 0.5534908 0.46844852 0.55484456
0000f0 df 4f 08 3f 72 03 0a 3f 20 4f 14 3f 9a 5d 24 3f
       0.53246874 0.5391151 0.57933235 0.64205325

cnn_layer.0.parametrizations.weight.original1 f4 [64, 3, 3, 3]
000000 2f e1 4b 3e d6 3b 7a bc b9 e2 27 3e c5 27 e3 bd
       0.1991012 -0.015273055 0.16395082 -0.1109157
000010 b4 0d 40 3b c6 fc 0e 3e 06 74 c3 bd 30 98 73 bd
       0.0029305043 0.13963613 -0.09543614 -0.05947131
000020 8e fd 95 bd b6 68 d9 bb d2 d2 ae 3d 20 06 3c 3d
       -0.07323752 -0.006634797 0.085363045 0.04590428
000030 a1 2a 8a 3c 36 06 d6 bd 3e 6d d4 bd 19 8a 56 bd
       0.01686603 -0.104504034 -0.10372399 -0.052377794
000040 e1 c2 3a 3c f4 a2 8c 3d 64 48 61 3c 33 30 39 3e
       0.011399002 0.06867018 0.013750169 0.18084793
000050 12 37 6e 3d 23 c3 ab bd aa 46 f0 3d db 21 c4 bb
       0.058157988 -0.08386829 0.11732228 -0.005985481
000060 bb 84 dc bd a4 3d f0 bd c1 6e 2e 3d ee e5 d0 3c
       -0.10767504 -0.11730507 0.042586092 0.025500264
000070 ab 25 e8 b8 a3 10 12 3b c7 8b 59 bd c0 32 be bd
       -0.00011069638 0.0022287748 -0.053111818 -0.092870235
000080 55 43 0c 3e 33 8f da bd 73 8d 5b bd 47 b8 1d 3e
       0.1369756 -0.10671844 -0.053601693 0.15402327
000090 e8 85 fc 3d 8d 95 16 3e 55 0c ad bd de 80 20 3e
       0.12330228 0.14705487 -0.08449618 0.15674159
0000a0 85 b0 20 bc 36 ae 27 be 0a a8 89 3d d5 ef 3b 3d
       -0.009807711 -0.1637505 0.06721504 0.04588302
0000b0 e1 f0 9b 3d 7c 3f 20 3e 9d 69 22 be 68 49 95 bd
       0.076143034 0.15649217 -0.15860601 -0.07289392
0000c0 77 44 30 3d a4 42 82 bd 04 3a 5d bd 0d 61 1c 3e
       0.043034043 -0.06360367 -0.054010406 0.15271397
0000d0 ba 76 d7 3c f7 63 1c bd 67 69 3b 3e 72 68 0b be
       0.02630173 -0.03818127 0.18301927 -0.13614061
0000e0 3c d8 97 bd c5 35 34 3d 5c c0 e2 bd b0 7b 80 bd
       -0.0741429 0.04399659 -0.11071846 -0.062735915
0000f0 13 99 c7 bb 3b de 50 3d bd a7 ac 3d 5e 87 35 3e
       -0.006091246 0.050993185 0.08430431 0.1772742
000100 53 ff b4 bd 7b 91 47 ba 39 77 f8 bc 69 da af bd
       -0.08837762 -0.0007612926 -0.030330287 -0.0858658
000110 a4 90 ba 3c b8 6b a0 bd 54 bc 08 3e c1 a4 d5 3d
       0.022774048 -0.07833046 0.13353091 0.10431815
000120 e3 30 16 3d 15 63 a4 bc ce 67 a2 3d 42 42 51 3e
       0.036667716 -0.020066777 0.079299554 0.20435432
000130 fc e5 d9 3c ec 7f 1f bd d8 9d c5 3d 29 ce 22 be
       0.026598923 -0.038940355 0.09649247 -0.15898956
000140 53 85 0b be b6 5e 35 be 06 44 db 3d 4b 33 21 3e
       -0.13625078 -0.1771191 0.10706334 0.15742223
000150 7d 41 44 3e e9 73 09 3e 53 5b 2d 3e df 99 15 bd
       0.19165607 0.13423122 0.16929369 -0.036523696
000160 dc e8 02 be 90 66 1e 3e 4d ca 95 3c 0f d5 18 3e
       -0.12784141 0.15468812 0.018284941 0.14925025
000170 f4 27 b4 bd cf 8b 1d be 3f 55 ac 3d b6 29 3a be
       -0.08796683 -0.15385364 0.08414697 -0.18179974
000180 9d a8 c1 bd 01 92 48 3d 61 e9 3d 3d db ec eb 3c
       -0.094559886 0.048967365 0.046365146 0.028799465
000190 2b ad cb bc ff 38 2a be dc fe 83 bd 28 5c dc 3c
       -0.024862846 -0.16623305 -0.06445095 0.026899412
0001a0 1d 1b 23 3e ce 6c e6 ba e6 41 33 3e c0 2e 16 bd
       0.15928312 -0.0017580034 0.17505607 -0.036665678
0001b0 dd 72 59 3d fa 86 69 bd c9 24 df 3d 3b fa a9 ba
       0.053088058 -0.05701349 0.10895688 -0.0012968251
0001c0 6e 35 25 be ad 81 dd 3d cc d5 2f be 0a 87 8f bc
       -0.16133663 0.10815749 -0.17171401 -0.017520446
0001d0 53 17 1c 3c 1a 63 df bc c6 3e 2d 3e 9a fb a1 bd
       0.009527045 -0.027268935 0.16918477 -0.07909317
0001e0 ec d3 c2 3d 15 28 fa 3d fe 0e 18 3e fc 69 1b 3e
       0.09513077 0.12214676 0.14849469 0.15177149
0001f0 35 d1 0b 3e 67 a0 08 be 38 85 06 bc 16 06 08 be
       0.13654025 -0.13342439 -0.008210473 -0.13283572
000200 1d 59 cf ba 05 f3 10 be 89 43 32 bd 27 cb cd 3d
       -0.0015819405 -0.14155205 -0.043521438 0.10048514
000210 08 bb ef bc 3c 77 07 3e 3c 2a 89 3c 26 89 91 3d
       -0.029263988 0.13229078 0.016743772 0.07106237
000220 e0 88 b0 3c b1 fd bd bd 2a c0 16 be 79 57 b7 3c
       0.021549642 -0.092769034 -0.14721742 0.022380577
000230 ed 11 08 3e b4 66 fc bd af 8e 0c bc a5 07 88 bd
       0.13288088 -0.123242766 -0.00857894 -0.06642083
000240 91 c4 d3 bd 79 41 96 3d c6 e4 22 bd 9b bf 02 3a
       -0.103402264 0.07336707 -0.039768957 0.0004987658
000250 8a e3 18 3d ca db cf 3d 46 14 41 be 55 66 c6 3d
       0.037326373 0.10149343 -0.1885539 0.09687487
000260 f3 d8 18 3e 64 5a c1 bc 92 1c 8b 3c ea b7 d4 3d
       0.1492651 -0.023602672 0.016981397 0.10386641
000270 71 62 1f 3e 71 a1 83 3d f1 0b fe 3d 97 d7 fb 3d
       0.15564896 0.06427277 0.124046214 0.1229698
000280 96 96 37 3e 05 45 f8 bd dd 60 40 bd 87 bf b2 3d
       0.17928538 -0.121225394 -0.046967376 0.08727937
000290 02 ef 52 3d ad 6f d4 3d 10 9e 76 bd b6 af a4 3c
       0.051497467 0.10372863 -0.060209334 0.020103317
0002a0 79 5a 05 bd 1c f5 c2 bc 9d c2 0c be e8 29 3f 3e
       -0.032556985 -0.023798518 -0.13746114 0.1866833
0002b0 5f 89 5b bd 9b 04 02 bd 2b 6d 22 3e 2e d3 ee 3d
       -0.053597804 -0.031742673 0.15861957 0.11661373
0002c0 6d 4f ec 3c 6b 5f 56 3e f1 a4 9a bd f0 53 e8 bd
       0.028846467 0.20934837 -0.07550991 -0.11344135
0002d0 05 80 8b 3a 49 3f 8a bd f6 f0 38 3c f6 bd 5b bd
       0.0010643011 -0.06750352 0.011287918 -0.053647958
0002e0 36 2d dc bd 78 6b be bd a2 21 32 3e 3c 50 f0 3d
       -0.10750811 -0.09297842 0.17395642 0.117340535
0002f0 22 98 54 bd f3 51 96 3d 03 74 00 3e 73 35 2d 3e
       -0.051902898 0.07339849 0.12544255 0.1691492
000300 5d 0a b1 3d 5f dc 11 be d7 e5 22 be 48 87 03 bd
       0.08644555 -0.14244221 -0.1590799 -0.032111436
000310 70 93 77 3c 51 b3 9c bc 61 39 d6 3d 30 7e a0 3d
       0.015110835 -0.019128473 0.10460163 0.07836568
000320 f3 bf f0 bd 71 be b1 3d 81 ab 30 be 4a e9 2e 3e
       -0.117553614 0.08678902 -0.17252924 0.1708118
000330 51 ca 38 be 20 15 e4 bd fa 22 2f be b9 4b 21 be
       -0.18045928 -0.11136842 -0.17103186 -0.15751542
000340 57 55 4f 3e b3 8f 51 3e b4 20 37 3e ac e2 04 3e
       0.20247398 0.20464973 0.17883569 0.12977093
000350 9b 6a df 3b 0c 24 8a bd aa 6e b2 bd 65 bd 34 3d
       0.0068181283 -0.06745157 -0.08712514 0.044125933
000360 86 32 dd bd b2 c6 21 3e a3 04 1f 3e 9f a6 31 3e
       -0.10800652 0.15798452 0.15529113 0.17348717
000370 3c 72 08 be c6 9b f1 3d 21 5f 4b 3e 4e e4 5b bd
       -0.13324827 0.117972896 0.19860508 -0.053684525
000380 2d a0 37 3e 05 c6 a1 bc 15 a1 a1 bd e0 df ef bd
       0.17932196 -0.019747743 -0.07892052 -0.11712623
000390 9b bb b3 bc 7c 91 7e 3d 84 05 a7 bd 24 81 1a 3e
       -0.021940043 0.062150463 -0.08155349 0.15088326
0003a0 da db 06 3e e4 82 ca bd 3d 23 cf 3c aa ff f1 bd
       0.13169804 -0.09888247 0.025285358 -0.11816342
0003b0 7e b6 12 be 8d f5 9a bd 4e 97 27 3e 3d 9a a8 bd
       -0.14327428 -0.07566366 0.16366312 -0.082325436
0003c0 64 cb 3b 3d 30 0c 1f be 84 20 6c 3b bf 0b d3 bd
       0.045848265 -0.15531993 0.0036030123 -0.10304975
0003d0 4b 2a 94 bd c4 de d3 bc b3 87 11 bd ad 3d 1d 3d
       -0.07234629 -0.025863059 -0.035529803 0.038388897
0003e0 04 5b 84 bd b1 9c f3 bd 12 52 ae 3d 41 4e 9f bd
       -0.06462672 -0.11895121 0.085117474 -0.077785976
0003f0 fc 1d 78 bc f5 33 48 3e ff 25 db 3b fe b5 fa 3d
       -0.015143868 0.1955107 0.006687879 0.122417435

cnn_layer.1.weight f4 [64]
000000 6f 21 83 3f 23 94 7b 3f 03 f0 85 3f fe 99 70 3f
       1.0244578 0.98272914 1.0463871 0.93984973
000010 3d 8c 79 3f c8 e9 6e 3f c2 ee 84 3f 56 19 83 3f
       0.9747961 0.9332547 1.0385363 1.0242107
000020 4d 72 7f 3f d3 90 89 3f be d5 85 3f de b3 72 3f
       0.99783784 1.0747322 1.0455854 0.94805706
000030 7c f6 70 3f da 5c 61 3f 63 28 86 3f f7 aa 7c 3f
       0.94126105 0.88032305 1.0481075 0.9869837
000040 62 64 85 3f 40 a8 83 3f e9 22 79 3f 2b c0 6f 3f
       1.0421259 1.0285721 0.97318894 0.936526
000050 f0 58 74 3f f3 bc 76 3f c1 91 81 3f ff 22 72 3f
       0.9544821 0.96382064 1.0122606 0.9458465
000060 65 bc 77 3f 3f 87 74 3f b8 37 73 3f a1 2c 82 3f
       0.9677184 0.9551887 0.95006895 1.016987
000070 34 a5 72 3f e4 a2 7f 3f b5 00 79 3f de cf 68 3f
       0.9478333 0.99857926 0.97266704 0.9094218
000080 0d 98 85 3f 08 24 79 3f a7 3f 76 3f 19 05 7d 3f
       1.0437027 0.97320604 0.96190876 0.98835903
000090 ef 4e 73 3f 02 23 80 3f d1 f4 67 3f cb d7 79 3f
       0.9504232 1.0010684 0.90607935 0.975949
0000a0 ad bc 6d 3f d3 a2 84 3f 9c 44 6d 3f f0 52 6f 3f
       0.9286602 1.036219 0.92682815 0.9348593
0000b0 b4 78 75 3f 11 1b 81 3f f3 63 7e 3f 6f 35 6d 3f
       0.95887303 1.0086385 0.9937126 0.9265966
0000c0 cc d9 83 3f b7 36 72 3f d1 06 78 3f 5f 9a 74 3f
       1.0300841 0.9461474 0.968854 0.9554805
0000d0 c0 14 72 3f a6 03 7b 3f 25 d4 78 3f 7d 71 79 3f
       0.9456291 0.9805244 0.97198707 0.97438794
0000e0 ba 3f 81 3f 96 06 7a 3f 81 c1 78 3f 90 f8 82 3f
       1.0097573 0.976663 0.97170264 1.0232105
0000f0 40 c8 78 3f f2 c2 7b 3f 78 0b 7f 3f 59 f5 84 3f
       0.9718056 0.9834434 0.99626875 1.0387374

cnn_layer.1.bias f4 [64]
000000 af b1 dd 3c 64 38 cf bc 2b 55 84 bb dd aa 74 bd
       0.027062265 -0.025295444 -0.004038473 -0.05973326
000010 2d 8b 94 bd cf 7c 55 3b f3 51 26 bb 83 e1 8f bc
       -0.07253108 0.0032575612 -0.0025378435 -0.017563587
000020 1e 71 f7 bc 05 b2 c6 3d df 92 84 3c 41 90 d5 bc
       -0.030205306 0.09701923 0.016183315 -0.026069762
000030 30 52 a3 ba cf 76 51 bd 0b 54 f9 bc f3 7d 21 bd
       -0.0012460407 -0.051138695 -0.030435583 -0.039426755
000040 c8 1c 19 bd bb f9 33 3d 4d 84 62 bd 32 8b 82 bd
       -0.037380964 0.043939333 -0.055301953 -0.06374206
000050 0e 9b 28 bd 14 52 c4 3a 47 6b 73 bc 73 8b 86 bd
       -0.041163497 0.0014978074 -0.01485712 -0.065695666
000060 8b 37 07 bd 99 b2 1f bd 6c 85 94 bd f1 76 1a bc
       -0.033011954 -0.038988683 -0.07252011 -0.009427772
000070 86 1a a0 bd 5d 10 f2 3c 8a 23 e5 bc e8 e4 81 bd
       -0.07817559 0.029548818 -0.027971048 -0.063424885
000080 cc 03 d7 3c f1 d2 15 bd 4f 94 08 bd 40 9b 0c bd
       0.026246928 -0.036578123 -0.033344563 -0.034327745
000090 93 38 0a bc b7 f8 21 bd 5d ab 95 bd 77 44 a4 bb
       -0.00843634 -0.039543834 -0.073080756 -0.0050130445
0000a0 b0 41 a9 bd 67 2c 44 bb 81 b1 ad bd 93 a4 f0 bc
       -0.08264482 -0.0029933692 -0.08481122 -0.02937535
0000b0 63 e4 61 bd 89 64 3a bc b0 4e f8 bc 05 80 80 bd
       -0.055149447 -0.0113765085 -0.030310959 -0.06274418
0000c0 2e 61 96 bc 6b 9e 67 bd bf 8c 86 bb fd da 98 bc
       -0.018356886 -0.056547564 -0.0041061337 -0.01865911
0000d0 c8 ab 56 bd ef e1 48 bc c1 e2 ff bc ca 28 ff bb
       -0.052409917 -0.012260898 -0.031236054 -0.007786845
0000e0 2d f6 ad bc f6 3c 05 bd 19 e5 c4 bc 94 16 59 bc
       -0.02123555 -0.03252884 -0.024035024 -0.013250012
0000f0 c2 19 3a bc f5 35 30 bc eb c9 3f 3c a3 60 0e 3c
       -0.01135868 -0.010755052 0.011705856 0.008690032

cnn_layer.4.parametrizations.weight.original0 f4 [32, 1, 1, 1]
000000 87 04 0b 3f fc 8e 1a 3f 59 13 0e 3f 27 d4 0c 3f
       0.54303783 0.60374427 0.5549827 0.5501122
000010 b9 c5 16 3f a3 1c 17 3f 67 29 0a 3f 0e 2c 12 3f
       0.5889545 0.5902807 0.53969425 0.5709847
000020 0b 43 0e 3f c1 e7 0d 3f 26 69 14 3f 2d 6b 12 3f
       0.5557105 0.55431753 0.57972944 0.5719479
000030 3e 75 0e 3f f7 40 11 3f 6b f8 15 3f af 6c 10 3f
       0.5564765 0.56739753 0.5858218 0.5641584
000040 d8 b8 1a 3f 9a 10 13 3f 15 2b 10 3f 0d bd 11 3f
       0.604383 0.57447207 0.5631574 0.56929094
000050 36 10 0c 3f 48 2a 0f 3f f9 3e 17 3f 0a fd 12 3f
       0.54712236 0.5592389 0.59080464 0.57417357
000060 ee 7d 10 3f 13 8d 0c 3f 80 33 12 3f f5 f7 06 3f
       0.56442153 0.5490276 0.5710983 0.527221
000070 08 8e 19 3f 6a 79 11 3f c5 09 11 3f 83 94 0f 3f
       0.5998235 0.5682589 0.5665553 0.56085986

cnn_layer.4.parametrizations.weight.original1 f4 [32, 64, 3, 3]
000000 9a 3a 0f 3d a8 9a ab bc f8 ba 3b 3c ef e1 cd bc
       0.034967996 -0.02094777 0.011458151 -0.025132148
000010 87 f2 99 3b 6a 50 7c 3c 0e d7 2a bd e9 da 0b 3d
       0.004698101 0.015400032 -0.041709 0.034144316
000020 d6 fc 1b 3d 0f 28 b3 3c df 1b 21 bc dc 42 f5 3c
       0.03808292 0.021869687 -0.009833305 0.029939108
000030 10 72 f3 bc 19 c8 b0 bc af 2e 02 bc bb 50 f8 bb
       -0.029717475 -0.021579789 -0.007945701 -0.007577983
000040 ce 9c 8a 3c fb 6e a1 bc cb e0 2c bd b1 26 8b bc
       0.016920473 -0.01970624 -0.042206567 -0.016986223
000050 41 2f 93 3c bb 01 d7 bc b7 fc c4 bc c6 20 07 bc
       0.017966868 -0.026245942 -0.024046285 -0.00824756
000060 9d 13 c7 3c 2f ea b8 3c e4 a8 1d bc 2c 27 21 3c
       0.024301345 0.022572605 -0.009622786 0.009835999
000070 16 7d 97 bb 8f f3 0c 3d 75 da 24 3d 4d 4c 94 bc
       -0.0046230657 0.034411963 0.0402474 -0.01810279
000080 95 ac 09 3d c3 f5 ee 3c a9 f6 dd b9 52 f1 57 3d
       0.033611853 0.029169923 -0.0004233618 0.052720375
000090 2a 60 1b bd aa d6 7d 3c 91 c9 d4 bc 0a 68 42 3c
       -0.037933506 0.015493074 -0.02597502 0.011865625
0000a0 f8 b7 17 3d 31 c9 26 3c e1 8a 63 bc 76 8d bb 3b
       0.03704068 0.010179804 -0.013888092 0.0057236506
0000b0 4d 54 fb 3b b3 f1 e0 bc d4 0f 35 3d 0f 02 07 3b
       0.0076699615 -0.027459001 0.044204548 0.0020600592
0000c0 07 9a 0a 3d 2a 6b b7 3b 94 ad 6d 3d 70 1a c0 ba
       0.0338383 0.0055974917 0.058026865 -0.0014656316
0000d0 c0 05 84 3c 8c 22 82 ba 42 35 0d 3d be c3 0c bd
       0.016116023 -0.0009928509 0.03447462 -0.03436636
0000e0 3b 5a a5 3c 19 6d c9 3c 58 c4 66 3b 09 12 d8 bb
       0.020184627 0.024588155 0.0035212245 -0.006593947
0000f0 6b b6 8e ba c1 7d 18 bd da 01 87 3c 06 ae 1d bd
       -0.0010888105 -0.037229303 0.016480375 -0.03849604
000100 dd 99 a7 3c 0f 72 a7 b9 64 59 d2 bb 88 68 4e 3d
       0.02045911 -0.00031937702 -0.0064193476 0.050392658
000110 15 d5 7e 3d b4 00 4a 3c 45 92 31 3d 4d 46 02 3d
       0.06221493 0.012329269 0.043352384 0.031805325
000120 b5 71 af bc c4 1e 29 bb b7 2d 93 3c a4 de 43 bc
       -0.021416524 -0.0025805691 0.017966134 -0.011954937
000130 39 b8 b6 3b c7 51 3f bb f5 83 51 bc 53 39 2f bc
       0.0055761603 -0.002919303 -0.012787809 -0.0106948195
000140 69 a2 f6 3c 21 8e cb bc c0 77 0d 3d 28 f6 06 bd
       0.03010674 -0.024848046 0.03453803 -0.032949597
000150 5a cd 35 bc 58 be cf bc df 18 44 3b 6f 62 22 bc
       -0.011096323 -0.025359318 0.002992205 -0.009911164
000160 7d 11 20 bd c6 32 66 bd 3b dd 00 3c b4 94 2c bc
       -0.039079178 -0.056200765 0.007865245 -0.0105335
000170 d0 b5 30 bd 2b 43 1d bd ce f6 0a bd 8f 0f 22 3c
       -0.04314214 -0.038394134 -0.033926778 0.009891405
000180 4d 18 9c bc b8 10 8c 3c 9f 3c b6 3c c4 cf 7a bc
       -0.019054556 0.017097816 0.022245703 -0.015308324
000190 2f 1e 27 3d a1 0d 3e bd c4 b2 01 3d cd 3b 07 3b
       0.04080027 -0.046399716 0.031664625 0.002063501
0001a0 31 4d 2e bd d7 9b 31 bb a8 be 28 3b ff eb 24 3d
       -0.042554084 -0.0027100944 0.0025748406 0.040264126
0001b0 13 ac ed bb 6a 21 af bb 9e be da 3b 34 fb 72 bc
       -0.007253179 -0.0053445594 0.0066755554 -0.014830399
0001c0 d4 d8 d5 3c 7d f9 1b 3d 13 32 d6 bc 8a 95 0c 3d
       0.026104368 0.038079727 -0.026146924 0.0343223
0001d0 9f d5 3e 3d 66 90 1f 3d 09 80 ae bc da 30 e3 3b
       0.046590444 0.03895607 -0.021301286 0.006933314
0001e0 9f f0 24 3d fa 12 29 3d 20 3d 30 3c b1 b8 45 3c
       0.040268537 0.041277863 0.010756761 0.01206796
0001f0 de 1b 65 3c 16 a7 dc bc c1 4d 09 3b 95 f4 75 3a
       0.013983695 -0.026935142 0.0020950886 0.0009382454
000200 27 9b 79 3d 64 4f 5c bd 50 4f 0a 3d ae 3f ab 3d
       0.06093898 -0.05378665 0.033767045 0.08361755
000210 85 7b b8 3c aa 55 03 3c 1d fd 14 3d 02 fb bd 3c
       0.022519836 0.008016029 0.0363742 0.023190979
000220 82 20 0e bd b7 83 53 3c 64 fa 13 3d e0 e2 2a 3c
       -0.03469897 0.012909821 0.036127463 0.010430068
000230 02 ba 29 3c 2f c4 38 3d 91 e9 ee bc 26 47 89 3d
       0.010359289 0.04510897 -0.029164108 0.067030236
000240 91 63 78 3c 29 1c fa bc f4 56 0a 3c 35 43 46 bd
       0.015160457 -0.030531006 0.008443583 -0.048403937
000250 f0 3b 81 3b 05 3c 0a bd 0b 44 0c 3d 8c b1 2c bd
       0.0039439127 -0.033748645 0.03424458 -0.04216151
000260 b2 a6 ce 3c ed 9b cc 3c 4b 79 06 3d 41 c7 4e 3c
       0.02522597 0.024976695 0.032830518 0.012620748
000270 1b 89 35 3d 30 1c 72 3d 5c c0 1e bc 43 36 cf 3c
       0.044320207 0.059108913 -0.009689417 0.025294429
000280 f0 e1 05 bc 45 b1 fd 3c c1 5c 7c 3d d1 f9 3c 3d
       -0.0081715435 0.030968318 0.061611895 0.04613668
000290 78 03 1b ba 26 87 49 3d 88 92 a8 bc 6f 0d b5 bc
       -0.00059132976 0.049201153 -0.020577684 -0.022101132
0002a0 78 18 76 3d 83 01 5e 3d 63 06 29 3d 59 1e ec bc
       0.06008193 0.05420066 0.041265856 -0.028823065
0002b0 50 c8 95 bc a5 62 67 3c 3d de 1b bd 2c 80 c9 3c
       -0.018283993 0.01412264 -0.03805374 0.02459725
0002c0 b7 34 0d 3d 4c dd 50 3c bc 4d 22 3d c7 d9 84 3d
       0.0344741 0.012748074 0.039624915 0.0648685
0002d0 3c 05 5c bc 5e d9 56 3c ab 2d ca bc a4 68 06 bc
       -0.013428982 0.013113348 -0.02467998 -0.008203659
0002e0 f4 9e ca bc 95 69 0d 3d 47 7c f7 3c fc 4d 9b bc
       -0.024733998 0.03452452 0.030210627 -0.018958084
0002f0 36 ee a2 bc cf 19 55 3c 6d 9b 06 bb 16 8c 3a 3d
       -0.019888978 0.0130066415 -0.0020539418 0.045543753
000300 38 88 00 3d a6 17 fa 3c 28 5e d7 bb 65 24 22 3d
       0.03137991 0.030528855 -0.0065725036 0.03958549
000310 88 da f8 bc 14 04 c1 3c b0 af 9d 3c c4 00 b9 bc
       -0.030377641 0.023561515 0.019248813 -0.022583373
000320 3f 29 52 3d 04 5d cb bc 4e 9d 15 3c 3c d1 3c 3d
       0.051308867 -0.024824627 0.009131743 0.04609798
000330 90 0b c4 3c 73 bb d6 bc c8 ff cf ba f3 95 f2 3c
       0.023931295 -0.02621243 -0.0015869075 0.029612517
000340 7b c7 19 3c 67 6a a8 3c 18 1b d4 bc e9 8d 55 3c
       0.009385939 0.02055855 -0.025891826 0.013034322
000350 81 0b f4 3c 00 78 2d 3c 22 66 fc 3c 89 5c 88 3c
       0.029790642 0.010587692 0.03081042 0.016645687
000360 10 31 00 bd 2f 0b 6f 3d ff 35 28 bb fb 92 22 3d
       -0.03129679 0.058360275 -0.002566695 0.039690953
000370 a4 f5 b3 3b 54 cc 57 3d c0 a0 0d 3c 42 cb 23 3d
       0.005491929 0.052685097 0.008644283 0.039988764
000380 75 5b 40 3d 78 4c 42 3b 4d 3a 59 3d bb 3d c5 bc
       0.04696222 0.002964763 0.053034116 -0.024077287
000390 2f f4 5c 3c 32 07 5b 3c 43 1b 38 3c bf 2e 41 3d
       0.013485952 0.013368415 0.011236968 0.04716372
0003a0 34 30 83 3d 4b 07 d5 bb d4 f6 27 3d 2c c3 3f 3d
       0.064056784 -0.0065011135 0.041006878 0.04681699
0003b0 eb 5a 93 ba 77 1d bf 3a 5d aa 26 3c 57 55 ae 3c
       -0.0011242306 0.0014580925 0.010172454 0.021280928
0003c0 88 53 7c 3b d6 4d 24 3d 7a 40 5d 3a 55 b9 72 3c
       0.0038501937 0.040113293 0.0008440089 0.014814694
0003d0 a7 23 a9 bc 65 d4 38 3d 79 3a 54 bc 76 3d 03 3d
       -0.020646883 0.04512443 -0.012953394 0.032041036
0003e0 5c d4 3e 3d 2a 13 0c 3d cb c2 97 3c 68 35 98 bc
       0.04658924 0.034197964 0.018525502 -0.018580154
0003f0 bb d6 49 3d f0 46 35 bc ec 6a 23 3c 0e 33 2c 3b
       0.04927705 -0.011064276 0.009974223 0.0026275548

cnn_layer.5.weight f4 [32]
000000 60 d9 69 3f ad 61 85 3f 20 f7 72 3f 1e 6c 6e 3f
       0.9134731 1.0420433 0.9490833 0.93133724
000010 e3 dd 7b 3f 39 a0 7e 3f d2 ea 78 3f 6e fc 7a 3f
       0.9838545 0.9946323 0.9723331 0.9804143
000020 1a e5 74 3f 80 b3 75 3f 7d 67 7c 3f 28 66 86 3f
       0.9566208 0.9597702 0.9859541 1.0499926
000030 b6 60 83 3f 3b 1e 7f 3f 2b 5b 75 3f eb 73 71 3f
       1.0263889 0.99655503 0.95842236 0.943175
000040 40 7b 73 3f 6a 01 81 3f 7d d9 81 3f e9 44 78 3f
       0.9510994 1.0078557 1.0144497 0.9698015
000050 9c b7 73 3f 72 e5 80 3f 16 ac 81 3f ad 1b 79 3f
       0.9520204 1.0070021 1.0130641 0.97307855
000060 83 ad 7d 3f 0b 12 74 3f 77 a3 7b 3f e0 b7 73 3f
       0.9909288 0.9534003 0.982963 0.95202446
000070 d1 23 7b 3f 6f 96 76 3f 57 ba 7a 3f 83 a3 80 3f
       0.98101526 0.96323293 0.9794058 1.00499

cnn_layer.5.bias f4 [32]
000000 a8 c6 91 bd bc 50 56 3c 9b ef 99 bd 70 9d d9 bc
       -0.07117969 0.013080772 -0.07516404 -0.02656433
000010 70 4f 99 bb c8 5c 26 bd 89 9d f9 bc e0 c7 46 bd
       -0.004678659 -0.040615827 -0.030470626 -0.04853046
000020 00 b9 27 bd 99 d0 5b bd 46 74 61 bd 81 b7 55 bd
       -0.040947914 -0.05366573 -0.055042528 -0.052176956
000030 fd 00 44 ba a2 c7 d3 bc 27 d6 09 bd b6 73 67 bd
       -0.0007476954 -0.025852028 -0.033651497 -0.056506835
000040 76 45 40 bd a9 47 1f bd 42 11 83 bd 6b 91 a7 bc
       -0.046941243 -0.0388867 -0.06399776 -0.020455083
000050 3c 57 1d bd f1 c0 18 bd 85 63 4f bc 67 76 c4 bc
       -0.03841327 -0.03729338 -0.012658005 -0.02398224
000060 23 f6 07 3d 6e 40 31 bd 05 e3 48 bb ef 5f a2 bc
       0.03319372 -0.043274336 -0.0030652892 -0.019821135
000070 4c c6 41 bd 75 c9 5c bd fa 03 b7 bd da 1b 4c bd
       -0.04730825 -0.053903062 -0.08936305 -0.04983125

cnn_layer.7.parametrizations.weight.original0 f4 [32, 1, 1, 1]
000000 93 b5 0d 3f 7b 76 0e 3f 9d e6 15 3f 64 19 11 3f
       0.55355185 0.55649537 0.5855501 0.5667937
000010 fd 20 0d 3f a4 b2 18 3f 2d 75 1a 3f de d8 0b 3f
       0.5512846 0.59647584 0.60335046 0.5462779
000020 d5 05 10 3f c2 a1 1a 3f 67 5f 14 3f 24 12 09 3f
       0.562589 0.6040307 0.5795807 0.53543305
000030 45 80 0e 3f eb ee 0e 3f b3 63 0d 3f f2 14 12 3f
       0.55664474 0.5583331 0.55230254 0.5706321
000040 83 33 0a 3f 5a 16 13 3f 72 6b 12 3f 85 79 10 3f
       0.5398485 0.5745598 0.571952 0.56435424
000050 f0 80 15 3f 9e 2c 0c 3f 6a 9d 0f 3f c1 30 11 3f
       0.5839987 0.5475558 0.5609957 0.5671502
000060 c5 ca 0c 3f 53 89 19 3f fa 39 10 3f 55 a4 0a 3f
       0.549969 0.59975165 0.56338465 0.54157
000070 9d ee 13 3f d7 b4 12 3f a3 8d 10 3f e5 8b 0e 3f
       0.5778597 0.5730719 0.5646612 0.5568221

cnn_layer.7.parametrizations.weight.original1 f4 [32, 32, 3, 3]
000000 b9 06 3c 3d 99 1c 44 bd 6c 80 30 3d e0 22 c6 bc
       0.04590485 -0.047878835 0.043091223 -0.024186552
000010 2c c5 92 bc 25 d2 64 3d 33 1b c0 ba 3f 59 f8 bc
       -0.017916285 0.055864472 -0.0014656543 -0.030315993
000020 7c 26 72 3d 1e f2 5b 3c 70 5a 22 3d 06 68 a6 3c
       0.059118733 0.013424424 0.03963703 0.020313274
000030 14 bf 33 3d 05 89 e7 3a 11 61 1c 3c ec 30 74 3b
       0.0438834 0.0017664736 0.009544627 0.0037260605
000040 51 c9 d0 bc b5 bd 68 3d a6 76 05 bd 86 e8 dc bc
       -0.02548662 0.056821544 -0.032583855 -0.026966345
000050 b6 90 50 3d ff bd 22 3d 49 ca bb bc 71 e7 37 bd
       0.050919257 0.039731976 -0.022923606 -0.044898454
000060 09 d9 1d 3b 8e 97 35 bd e0 59 0a 3d ec 23 26 bb
       0.0024085662 -0.044333987 0.033777118 -0.0025351
000070 0e 1e 80 bc 5f 5f 2e 3d ea 28 b8 bc 8c 3b c9 bc
       -0.015639331 0.04257142 -0.022480447 -0.024564527
000080 aa 6a 20 bd d1 e4 eb 3b 18 57 23 3d f9 e9 ed bc
       -0.039164223 0.007198908 0.03987798 -0.02904223
000090 fd 70 28 3d 7b 78 7f bd 99 83 1d 3d e8 d3 55 bd
       0.04112338 -0.06237076 0.03845558 -0.052204043
0000a0 f6 3a 87 bd a8 b7 54 bd 8b aa d6 bc ac c4 47 3c
       -0.06603043 -0.05193296 -0.026204368 0.012192886
0000b0 1e ec e4 ba f7 66 bb 3c 46 83 ea bb ab 0e 06 bb
       -0.0017465388 0.022876246 -0.0071567623 -0.002045552
0000c0 37 dd 57 3c 25 a0 77 3c 35 bd 20 3d d8 86 1e 3d
       0.0131753 0.015113865 0.039242942 0.038702816
0000d0 bf 11 55 3d 30 b1 62 3d 1a 88 2b 3d 68 30 9b 3c
       0.052018877 0.05534476 0.041877843 0.01894398
0000e0 cb 42 31 3d 12 c6 cc 3c 5f 1b 31 bd 60 ef 57 bd
       0.04327659 0.024996791 -0.043238994 -0.05271852
0000f0 10 67 2f 3d 8f 9e 3c 3d 80 46 05 3c cb 44 02 3d
       0.042822897 0.04604965 0.008134484 0.031803887
000100 7e 90 b3 3c b4 96 56 3c bf 78 b0 3b 9e b9 fd bc
       0.021919485 0.013097454 0.005385488 -0.030972298
000110 02 e2 aa 3c 1f f2 4b 3d 72 ab ed 3c 92 18 91 3d
       0.020859722 0.04979145 0.029012416 0.070847645
000120 7d e2 0c bb 79 ab 88 3d 3c c5 90 ba f0 7d 78 3d
       -0.0021497302 0.06673331 -0.0011045109 0.06066698
000130 cd 7c 84 3d 81 eb 57 3d ff 7e 71 3d 8c c9 3d 3d
       0.06469116 0.05271483 0.058959004 0.04633479
000140 81 90 3d bc 75 cd 01 bd 7e 96 c1 bb 59 e4 bc 3b
       -0.011570097 -0.03169008 -0.0059078326 0.005764526
000150 69 cd de bb c9 38 3e bd 7c 10 1d bd 71 2a 03 3d
       -0.006799389 -0.046440873 -0.0383458 0.032022897
000160 37 ee 5b 3d c0 03 1d 3d f7 1d 25 3c ab 1d cf bc
       0.053693976 0.038333654 0.010077945 -0.025282701
000170 3f 29 44 bd 9c 77 06 bd 98 e1 af 3b 05 ba 8e bd
       -0.047890898 -0.032828912 0.005367469 -0.06969074
000180 0b 80 65 bd 6d 1f 51 bd 1e 66 01 bd 7a 3e 3f 3c
       -0.056030314 -0.05105536 -0.031591527 0.01167261
000190 8b 8e 71 bd c5 91 c5 bc 2a ad 1d bd 4c 83 01 3b
       -0.05897383 -0.02411736 -0.03849522 0.0019762097
0001a0 3a d6 de bc 5f 80 8c 3b 1e a6 58 bd c6 8d 3e 3d
       -0.02720176 0.004287764 -0.052892797 0.046521924
0001b0 9d ca dd 3c 1c 4a 5f bd 6e 3a 4b bc 9c 8a 57 bd
       0.027074153 -0.054514036 -0.012404067 -0.052622423
0001c0 b8 87 61 bd 6b f8 01 bd 8c ae 44 bd cf 81 2e bd
       -0.055061072 -0.03173105 -0.048018023 -0.042604264
0001d0 65 05 dd 3b 74 6a 92 bc 54 b8 06 3d e0 31 08 bd
       0.006745028 -0.017873026 0.032890633 -0.03325069
0001e0 16 85 7f bd bf 8f 52 bd 74 08 f2 bb 76 59 85 3c
       -0.06238278 -0.05140662 -0.0073862616 0.01627801
0001f0 7a f5 16 bc b3 09 01 bb 70 fa 06 3d e0 6e a2 b9
       -0.0092138 -0.001968962 0.03295368 -0.00030981656
000200 e4 a6 64 bd 91 ec 0f bd f5 0f d8 3c a7 e4 8f 3c
       -0.05582322 -0.035137717 0.026374796 0.017565085
000210 5f 33 61 bd c7 e3 80 bb 39 43 40 bd 2f d8 1c bd
       -0.054980632 -0.003933403 -0.04693911 -0.038292106
000220 59 76 5a 3d a1 a3 a6 3c 99 67 41 3d ad 2f 80 3c
       0.05333552 0.020341696 0.04721794 0.015647734
000230 22 11 9f 3c c7 9e 62 bd 12 a8 0d 3d 6a 7e 48 3d
       0.01941735 -0.055327203 0.034584112 0.048948683
000240 4b 71 b2 3c 84 06 2d 3d b8 7a 10 3d 14 3f b6 bc
       0.021782538 0.042242542 0.035273284 -0.022246875
000250 1f 03 0b bd 51 df 82 3d e1 87 32 3d 72 2a 41 bd
       -0.033938523 0.063902505 0.043586615 -0.04715962
000260 89 8b be 3b 76 1b 3d 3d 55 58 1a 3d b3 cc 09 bc
       0.0058149737 0.046168767 0.037681896 -0.0084106205
000270 b5 de 3b bc 0a b4 44 3d c3 f8 81 bd e5 95 90 3c
       -0.011466672 0.04802326 -0.06346276 0.0176496
000280 2f 24 a2 bc 39 c9 14 bc 88 58 58 3d 47 a5 89 3c
       -0.019792644 -0.009081178 0.052818805 0.016802443
000290 50 c3 22 3d 02 cc 4e bd 0f c8 dc bc ee 48 b8 3c
       0.039737046 -0.050487526 -0.026950864 0.022495713
0002a0 23 c9 c7 3c d9 a9 32 bd 58 ff 2c bb c3 9d 19 3d
       0.024387902 -0.04361901 -0.0026397314 0.03750397
0002b0 21 4d ed bc 98 d4 21 bd f1 3c 7c bb 2b b5 fb 3c
       -0.028967442 -0.039509386 -0.0038488472 0.030726036
0002c0 62 04 04 bd e0 bc 78 3d 3d af 1f 3d ae 84 86 3d
       -0.032230742 0.060727 0.03898548 0.065682754
0002d0 98 4c 6e 3c 30 83 fd 3c b2 39 bd bb 95 ce 06 3d
       0.014544629 0.030946344 -0.0057747 0.032911856
0002e0 0a 30 8e 3d 6e 77 1b 3d d6 b7 38 bd 0f d4 66 3c
       0.069427565 0.037955694 -0.045097195 0.014088645
0002f0 58 e7 58 3d 6c 51 0b bc e2 d2 5c bd e3 24 84 3c
       0.052955 -0.008503299 -0.05391205 0.01613087
000300 bc b7 27 bd f9 bf 59 bd d7 50 f1 bc 0e 71 94 3c
       -0.040946707 -0.053161595 -0.029457493 0.018120315
000310 de 29 4e 3d 6d a1 66 bc a5 8f fc 3c a3 3e 69 ba
       0.050332896 -0.014076573 0.030830214 -0.0008897578
000320 64 2e cb 3c c1 bc ae 3d 81 64 1b 3d f1 27 ab bb
       0.024802394 0.08532096 0.037937645 -0.0052232672
000330 19 7d 22 3d 57 c7 05 3d 45 83 9b bc 03 4e 34 bd
       0.039670084 0.03266081 -0.018983493 -0.04401971
000340 01 26 9c 3c 59 f0 54 bc 79 61 9e 3d 8e 78 17 bb
       0.01906109 -0.0129967565 0.07733435 -0.0023112628
000350 90 37 c5 b8 70 44 2e 3d 96 d4 85 3c c9 68 f5 3c
       -9.404041e-05 0.042545736 0.01633672 0.029957192
000360 ea 88 76 3c b4 5b 37 bc b9 f9 07 bc 3d c4 09 3d
       0.015047291 -0.011191297 -0.008299285 0.033634413
000370 77 32 dc bc 4a 98 54 bc e9 14 9b 3c 57 79 35 bd
       -0.026879532 -0.012975762 0.01893087 -0.04430517
000380 6d d1 72 bd 74 96 20 bd 70 6c 60 bd e6 ca c7 bb
       -0.059281755 -0.039205983 -0.054790914 -0.0060971854
000390 bd bd 0a 3d 44 24 8a ba c5 8f 15 bd 02 ee e0 bc
       0.033872355 -0.0010539372 -0.036514062 -0.027457241
0003a0 d1 c3 0e 3d ea 9d e9 3b b0 bf 10 3d 3b e7 68 3d
       0.034854714 0.0071294205 0.035339057 0.056861144
0003b0 3a 71 2d bd 80 30 86 bb 68 ff f8 3b 4d 97 d0 bb
       -0.04234431 -0.004095137 0.007598806 -0.0063656927
0003c0 e8 82 11 bd cb 80 b0 3c 34 7a f2 b9 2f e8 08 3d
       -0.035525233 0.021545788 -0.00046248885 0.033424553
0003d0 a1 13 30 bd 80 65 fc 3c 59 7b 37 bd 5a b5 80 bd
       -0.04298747 0.030810118 -0.044795368 -0.0628459
0003e0 24 4b 1b 3d b9 d3 f7 bc 5e fd e4 bb ca 81 34 3d
       0.037913457 -0.030252324 -0.0069882115 0.04406909
0003f0 a3 4b 21 bd e1 b6 4a bc 56 fe 1d 3c cc 37 5b 3d
       -0.039378773 -0.012372703 0.009643158 0.05352001

cnn_layer.8.weight f4 [32]
000000 a3 3e 77 3f 7a cc 7d 3f 5b ce 7c 3f 0f 07 83 3f
       0.9657995 0.9914013 0.98752373 1.0236529
000010 37 82 79 3f bb 2b 82 3f 70 01 81 3f 63 2f 78 3f
       0.9746432 1.0169595 1.0078564 0.96947306
000020 64 9e 7e 3f 39 a4 7c 3f 66 8c 75 3f 0d 01 76 3f
       0.99460435 0.98688084 0.95917356 0.96095353
000030 cc e1 79 3f 79 df 80 3f 21 59 7c 3f f7 4c 7e 3f
       0.97610164 1.0068198 0.985735 0.9933619
000040 0b 19 74 3f 8f 5a 81 3f d2 cd 83 3f b3 d8 77 3f
       0.9535071 1.0105761 1.0297186 0.9681503
000050 96 17 7e 3f 09 15 7e 3f d1 2e 7a 3f 9d e5 7b 3f
       0.9925474 0.9925085 0.97727686 0.9839724
000060 d3 90 76 3f e0 b0 81 3f b9 4a 7e 3f a5 dc 81 3f
       0.96314734 1.0132103 0.9933277 1.014546
000070 c1 d3 7d 3f 53 a0 78 3f 66 97 77 3f e5 fc 7a 3f
       0.99151236 0.97119635 0.9671539 0.98042136

cnn_layer.8.bias f4 [32]
000000 c4 b7 c5 bc 43 9a dc bc 62 3d e2 bc 4d ce af bc
       -0.024135478 -0.026929026 -0.02761716 -0.021460677
000010 57 cd 62 bc 95 52 6c bd 4a 17 d1 bc b7 d0 ed bc
       -0.013842902 -0.057695944 -0.0255238 -0.029030187
000020 94 3e 54 bd 41 d9 14 bd 64 fe c7 bc b5 5b 6b bd
       -0.05181749 -0.036340002 -0.024413295 -0.057460506
000030 21 89 94 bc 27 a1 e1 bc cc 0f b0 bc dd 6a f2 bc
       -0.018131794 -0.027542664 -0.021491908 -0.029591972
000040 79 da f7 bc cc f5 33 bd b0 43 e5 bb 91 e0 02 bd
       -0.030255543 -0.043935582 -0.0069965944 -0.031952444
000050 0a e8 ae 39 d9 97 25 bc 15 38 f1 bc 4c 04 8d bc
       0.0003336075 -0.010107004 -0.029445687 -0.017213963
000060 03 9e ad bc 45 d0 e5 bc c9 c9 bd bc 52 1f 5f bd
       -0.02119351 -0.028053412 -0.023167508 -0.05447323
000070 94 9f 65 bc 5c 65 5f bc 7d 1b 2d bc 5c 52 85 bc
       -0.014015097 -0.013635006 -0.010565636 -0.016274624

cnn_layer.11.parametrizations.weight.original0 f4 [16, 1, 1, 1]
000000 95 c0 0f 3f 53 44 0f 3f 84 d7 10 3f 41 69 13 3f
       0.5615323 0.5596363 0.5657885 0.5758248
000010 da 37 13 3f 4b af 0f 3f 22 af 17 3f 33 30 09 3f
       0.575071 0.5612685 0.59251606 0.5358917
000020 27 30 15 3f 45 4c 13 3f ff 35 0e 3f 1c f9 0f 3f
       0.582766 0.57538253 0.5555114 0.56239486
000030 d9 d4 1c 3f b1 f3 0b 3f fc 90 1d 3f 12 a4 07 3f
       0.6126228 0.5466872 0.61549354 0.52984726

cnn_layer.11.parametrizations.weight.original1 f4 [16, 32, 3, 3]
000000 d3 12 31 bd 64 5a 1e bd 29 2d 6e 3c 58 2a 44 bd
       -0.043230843 -0.038660422 0.014537134 -0.047891945
000010 03 32 d5 bc 95 2a 53 3c 9d 38 82 bd be 25 71 bd
       -0.026024824 0.01288857 -0.063584544 -0.058873884
000020 41 11 4d bd db e2 0b bd a3 c1 94 bd 76 ad 20 bc
       -0.050065283 -0.034151893 -0.07263496 -0.009806981
000030 48 bd 12 3d 62 44 15 3d 34 70 a2 bc cd 74 94 3c
       0.035825044 0.036442168 -0.019828893 0.018122101
000040 c4 bd a2 bc 5c 8a 88 3c f1 4f b6 3c 38 b0 71 bd
       -0.019865878 0.016667537 0.022254916 -0.059005946
000050 48 67 73 bc 71 54 3a bc 69 47 06 3d 17 1a 19 3b
       -0.014856167 -0.011372671 0.032782946 0.0023361498
000060 25 40 55 bb 46 ca 01 bd 3a c6 86 bd 12 05 73 3c
       -0.0032539454 -0.031687044 -0.065807775 0.014832752
000070 e0 4f 10 bd d9 4b 60 bd 64 bc 8a bc 38 ef a7 bb
       -0.035232425 -0.054759834 -0.016935535 -0.0051249526
000080 f5 65 b5 bc ff 31 c4 bc e6 7e 6c bd af 59 b0 3b
       -0.022143343 -0.023949621 -0.057738207 0.005381785
000090 67 13 37 3d 05 c6 fe 3b 5e fc 01 3d d2 9c 2c b8
       0.044696238 0.0077750706 0.031734817 -4.1154046e-05
0000a0 0e d8 4f 3d 68 33 81 bc d4 a2 34 3c d8 a7 57 3d
       0.050743155 -0.015771583 0.011025149 0.052650303
0000b0 bf c3 b2 3c 86 f4 f1 3c 7d 9d 69 bb 7a eb 5f bc
       0.021821855 0.029535543 -0.003564685 -0.013666982
0000c0 6f 80 12 3b d4 42 74 3d c5 85 81 3d 87 8e 05 bd
       0.0022354384 0.059634045 0.06324343 -0.032606628
0000d0 96 73 c4 39 1d ec c8 bc a2 b7 ba bb 4a b5 2d bd
       0.0003747015 -0.02452665 -0.0056981603 -0.04240922
0000e0 04 2b fc bb c7 21 4f 3d d6 27 08 3d 45 4c 76 bd
       -0.0076955575 0.050569322 0.033241116 -0.06013133
0000f0 ca 39 1a bb 1a 4a 90 bd ae ab 79 bc ff 53 02 bd
       -0.002353298 -0.07045384 -0.0152386855 -0.031818386
000100 8a a0 26 bd 16 af ef bc 3e 69 5d 3d e8 ca 16 3d
       -0.040680446 -0.029258292 0.054055445 0.0368146
000110 5b fb d3 bc 13 f8 90 3c 0e 10 54 3d 01 c2 66 3c
       -0.025876692 0.017696416 0.051773123 0.01408434
000120 a0 8b b8 bb e6 86 da bc 55 85 1e 3d 18 08 bc bc
       -0.005631879 -0.026675653 0.038701374 -0.022953078
000130 38 30 5b 3d fd 56 97 bc 0b 7b a3 bc 03 63 36 bd
       0.05351278 -0.018474096 -0.019956132 -0.04452802
000140 cb 94 03 bc db 7b 08 3d de b1 38 3d 1a 00 f8 bc
       -0.0080310805 0.033321243 0.045091502 -0.030273486
000150 94 45 27 bc 5f 68 a8 bc 1b 35 25 3c bf 4c a5 b9
       -0.01020946 -0.02055758 0.010083462 -0.00031528433
000160 8d d5 d4 3c 54 c4 8c 3d 22 0b 5b bc 91 49 dd 3b
       0.025980735 0.06873384 -0.0133693535 0.0067531546
000170 c2 66 b6 bc 55 88 20 3d 33 c3 e5 3c 3d 68 21 3c
       -0.022265796 0.039192516 0.02804718 0.0098515125
000180 de f0 6a bd 6a 3c 13 3d 76 6c 0e bd af 16 bd bb
       -0.057358615 0.035946287 -0.034771405 -0.0057705264
000190 17 d8 26 bd 61 f4 7a 3c 58 e4 4a 3d 98 c9 94 3b
       -0.040733423 0.0153170535 0.04953417 0.0045406334
0001a0 d3 f7 e0 3c 20 f4 e0 3c 9a ff dc 3c 8c 54 7b bc
       0.027461922 0.027460158 0.02697735 -0.015339982
0001b0 c8 67 25 3b 00 0e d6 3c 0d c3 1a bc a5 e5 10 bd
       0.002523886 0.026129723 -0.009445918 -0.035375256
0001c0 0d ee a9 3b fc d6 57 3d 0c 09 c6 bc bb 76 9e 3c
       0.0051858486 0.05269526 -0.024174236 0.019343724
0001d0 8a 64 4c bd eb 80 08 bd 85 2c f8 3c 97 38 3b 3b
       -0.04990057 -0.03332607 0.030294666 0.0028567666
0001e0 ed 53 12 3d a2 f1 b3 3b 84 8c c7 bc d1 b6 27 ba
       0.03572457 0.0054914514 -0.024358995 -0.0006397786
0001f0 19 3d b6 3c 8b 80 eb bc 24 6d b2 3c 68 b6 cb bb
       0.02224593 -0.028747818 0.021780558 -0.006216813
000200 06 85 91 3c f2 a9 89 bc ad 22 b7 bc 31 a3 6e 3a
       0.017763626 -0.016804669 -0.022355402 0.0009103297
000210 a6 c5 15 3c 99 15 0e bc 14 3f de bb 37 43 62 bb
       0.009141361 -0.0086721415 -0.006782422 -0.0034524926
000220 90 a5 28 bd bc af d6 3c 0d 26 17 3d ae e8 67 bd
       -0.041173518 0.026206844 0.036901522 -0.056618385
000230 89 a8 91 bc 48 05 50 3d 5a 79 15 3d 11 ec 5c bd
       -0.01778056 0.050786287 0.036492683 -0.053936068
000240 df 21 a3 3c d5 54 8c bd 4b 43 91 bc 43 58 5b bd
       0.019913612 -0.06852118 -0.017732283 -0.05355097
000250 42 4b 19 3d 60 f8 36 bd f1 98 8e bd a2 97 68 bd
       0.037425287 -0.044670463 -0.06962765 -0.056785233
000260 04 60 e0 bc 54 73 3e bc c4 c5 a6 bd e1 12 c0 bc
       -0.027389534 -0.011624176 -0.081431895 -0.023446502
000270 bc 0d 6f 3a d8 1e 0e bd 9a 6a 38 bd f0 14 2b bd
       0.0009119173 -0.034697384 -0.04502354 -0.041768014
000280 c4 aa 4b bd ac 76 96 bd c5 e0 07 bd 4e 24 21 3d
       -0.0497234 -0.073468536 -0.03317334 0.039341263
000290 60 e0 a5 3b 57 f3 8c 3d 1d 7d e9 3c 4c c1 00 bd
       0.005062148 0.06882351 0.028502041 -0.031434342
0002a0 f8 72 c9 bc 05 b6 27 bc ce 29 70 bd 79 b0 28 3d
       -0.024590954 -0.010236268 -0.058633618 0.041183922
0002b0 eb d2 8b bb ed 13 50 bd 16 fc d4 3c b2 49 cb 3c
       -0.0042670867 -0.050800253 0.02599911 0.024815414
0002c0 0a 26 7f 3b 6a 90 ce bc 70 e1 7f 3b 6d a3 1e 3d
       0.0038932585 -0.025215346 0.0039044283 0.038730074
0002d0 59 dd 27 3b 06 87 05 bd f5 35 6d bd d8 d6 2f bd
       0.0025614111 -0.03259947 -0.057912786 -0.0429295
0002e0 8b 72 39 bd e1 c0 ed bc 5e bc 3a 3b d1 ce 92 bd
       -0.045275252 -0.029022636 0.0028493623 -0.07168353
0002f0 6a 2a 19 3c 82 44 de bc 89 f5 53 3c 98 5f 58 3c
       0.009348491 -0.027132276 0.012936958 0.013206385
000300 7e c5 2c bd 12 5d 43 bd cf bd 04 bd 4b bd 07 3d
       -0.04218053 -0.04769618 -0.032407578 0.03313951
000310 00 13 c8 3c 6e c4 75 3c 39 69 82 bd 0f ac 8c bc
       0.024423122 0.015000446 -0.06367726 -0.017171888
000320 99 ca 3b 3c a7 6e 06 bd 73 cd 4b bd aa 88 b0 3b
       0.011461877 -0.03282037 -0.04975648 0.0053873854
000330 f2 ce eb 3c 7c 8e 3d bd 6a ee fa bc e0 45 eb bb
       0.028785203 -0.04627846 -0.030631263 -0.0071799606
000340 34 e6 a8 bd fb e2 b8 bd 8e 42 a4 bd a7 19 b9 3c
       -0.08247033 -0.09027668 -0.08020507 0.02259524
000350 f2 be 7a bd 8a b9 43 bd 98 31 b2 bc 07 11 4f bd
       -0.061217256 -0.047784366 -0.021752164 -0.050553348
000360 4d 8a 3b 3d 0e 2b 79 3d ce 56 e9 3c 05 fb 93 bc
       0.04578619 0.060832076 0.028483775 -0.018064031
000370 e2 4b 96 3c e6 4b 0e 3d c1 ba 5b 3d f1 14 1c bd
       0.01834673 0.03474035 0.0536449 -0.03810591
000380 d6 56 fe bc 28 b3 91 bb a1 ec 39 3d 65 56 84 bd
       -0.031047266 -0.004446406 0.045391683 -0.06461791
000390 35 9f 97 bc f1 98 4f bd 43 f0 45 bd a9 5b f4 ba
       -0.018508533 -0.050682966 -0.048324835 -0.001864304
0003a0 2d d8 4f 3c f1 73 62 3d 1a 38 45 3d f0 e6 16 3c
       0.012685818 0.05528635 0.048149206 0.009210333
0003b0 2f bb 40 bd 39 f5 ea bc 66 dc 24 bd 68 7a 12 bd
       -0.047053512 -0.028681384 -0.04024925 -0.035761267
0003c0 c9 27 cd bc 8a 62 4d bd 50 d5 f4 ba 07 e7 9a 3d
       -0.025043385 -0.050142802 -0.0018679295 0.07563596
0003d0 7d c7 54 3d 44 2b 40 bd 58 3b af 3d 2c 5c 80 3d
       0.05194806 -0.04691626 0.08556241 0.062675804
0003e0 4a 98 17 3d b6 51 56 3d 24 17 88 3d ec aa e4 bc
       0.03701047 0.05232402 0.06645039 -0.027913533
0003f0 22 19 26 39 26 5d 12 39 e3 9d 5e bd e6 15 86 38
       0.00015840356 0.00013958346 -0.05434979 6.393697e-05

cnn_layer.12.weight f4 [16]
000000 06 f2 78 3f 90 f0 7b 3f 84 0d 7e 3f 6e 53 79 3f
       0.972443 0.98413944 0.99239373 0.9739293
000010 48 ed 76 3f f2 91 78 3f 72 c4 7c 3f 11 fc 7a 3f
       0.9645581 0.97097695 0.9873725 0.9804087
000020 83 6f 7b 3f 2d a5 79 3f 56 91 74 3f d3 e9 78 3f
       0.9821703 0.97517663 0.95534265 0.9723179
000030 e2 ed 7b 3f 74 65 80 3f 4e d0 80 3f 91 f7 7c 3f
       0.98409855 1.0030961 1.006357 0.98815256

cnn_layer.12.bias f4 [16]
000000 c2 ff 0a bc 33 a6 85 bc 09 ea f5 bb ba 6a 74 bc
       -0.008483829 -0.016314602 -0.007504706 -0.014918024
000010 fa b8 c7 bc 24 24 59 bc d8 c1 54 bd d6 46 0a bd
       -0.024380196 -0.0132532455 -0.051942676 -0.03375896
000020 86 e0 bc bc b8 29 1b bc e9 f9 07 bd 27 39 4c bd
       -0.02305628 -0.009470396 -0.033197317 -0.049859192
000030 51 35 ef bb 8f 4a 83 bc 0c ab ba bc 8d 52 d7 bc
       -0.007300057 -0.016026763 -0.02278664 -0.02628448

cnn_layer.14.parametrizations.weight.original0 f4 [16, 1, 1, 1]
000000 fd 49 14 3f 77 c2 14 3f cf ec 10 3f 6b 18 07 3f
       0.579254 0.5810923 0.5661134 0.52771634
000010 c4 ae 10 3f 31 35 09 3f 38 d8 07 3f f3 6d 15 3f
       0.5651667 0.5359679 0.530643 0.58370894
000020 5a 58 15 3f 19 58 12 3f 35 45 0d 3f c5 8b 11 3f
       0.5833794 0.57165676 0.55183727 0.56853896
000030 e4 d3 0a 3f 9f 71 0b 3f 2d 1a 17 3f a2 07 0f 3f
       0.5422957 0.5447025 0.59024316 0.5587102

cnn_layer.14.parametrizations.weight.original1 f4 [16, 16, 3, 3]
000000 05 2a 6d 3d fd 04 97 3d 5f eb 53 bd 4b 25 92 3d
       0.0579014 0.07373998 -0.05173814 0.07136019
000010 9a b8 11 3d 30 a6 ce 3c 8e 4f db 3c 59 f7 97 bb
       0.03557644 0.025225729 0.026771333 -0.0046376404
000020 4b d2 49 3b 42 50 26 3c 49 a2 16 3d c3 f7 44 3d
       0.003079551 0.010150971 0.03677586 0.048087846
000030 8d 21 87 bd ba 9e 0c 3d 5b 51 28 bc 96 b8 42 3d
       -0.06598196 0.03433106 -0.010273303 0.047539316
000040 36 f6 11 bd 82 b8 ec 3c 71 3c 8b bd fa d9 66 3c
       -0.035635196 0.028896574 -0.06798638 0.014090056
000050 1b a3 be 3c 21 d3 d2 3c 96 ea b0 3d 9e 34 c5 ba
       0.023271134 0.02573544 0.08638494 -0.0015045588
000060 ac 73 1f bc 78 3d 80 bd 43 65 9a bd 3b 28 30 3d
       -0.009732168 -0.06261724 -0.075388454 0.043007117
000070 2b 63 af 3d 56 83 01 bd e5 80 9a 3d dc 82 63 bc
       0.08563837 -0.031619392 0.07544116 -0.01388618
000080 1d 50 62 bd 58 b5 c6 ba 32 87 8a bd ca 35 ab 3b
       -0.055252183 -0.0015160246 -0.06764068 0.005224918
000090 f3 4f 89 bc 4c de a4 3d ad 3b 98 bd 05 73 0a 39
       -0.016761756 0.08050212 -0.07433257 0.00013203554
0000a0 c8 87 4f 3d d7 ee 14 3d 71 5c 49 3c a6 4b 58 3d
       0.0506666 0.036360588 0.012290106 0.05280652
0000b0 64 7f 70 3d 09 22 af 3b de d7 cd 3b 36 53 4b bd
       0.05871524 0.0053446335 0.006281837 -0.049639903
0000c0 a9 c9 11 3d 1a 52 da bc ef 1a 32 bd 5d e9 15 bd
       0.03559271 -0.026650477 -0.043482717 -0.036599506
0000d0 97 64 39 bd 56 3d 14 bd 1a bb 8e bd 1f 3d 5b bd
       -0.045261946 -0.036191307 -0.069692805 -0.053525086
0000e0 b9 ec f9 3d 5e 76 8f bd 38 52 a4 3d 9b 35 c5 3d
       0.122033544 -0.070049986 0.080234945 0.09629365
0000f0 21 50 c1 bb 56 96 e5 bc 95 f4 44 bd 4e 9c 2d bd
       -0.0058994447 -0.028025787 -0.048084814 -0.042385392
000100 91 0c 70 bd 66 01 cb bc 2d 59 8b 3c 98 b2 0a 3d
       -0.058605734 -0.02478094 0.017010296 0.033861727
000110 aa 93 8d bc 26 1b c4 bd 10 c3 f6 3c 28 10 9f ba
       -0.017282326 -0.09575491 0.03012231 -0.0012135552
000120 3b d0 9f 3d 36 e1 6c bd a6 df 36 3d 35 30 0a 3d
       0.07803389 -0.057831965 0.04464688 0.03373738
000130 6a 81 30 3c dc a9 c7 3c e8 f0 c7 3d 13 95 1a 3d
       0.010773042 0.024372987 0.09762746 0.037739825
000140 e7 ca e2 3d e1 4b 3f 3d e3 36 4f bd fe ef e0 3d
       0.11073857 0.046703223 -0.050589453 0.10983275
000150 b5 22 0b bd 3d 96 57 bd 5b ad 08 3d 23 67 1c bd
       -0.033968646 -0.052633513 0.03336845 -0.038184296
000160 a7 f7 b5 3d c1 2f ea 3c 32 a9 38 bd 81 22 87 bd
       0.088851266 0.028587224 -0.045083232 -0.06598378
000170 6b 02 74 bb 3c d9 a3 3c 21 36 f0 3c 2b 18 a7 3c
       -0.0037232887 0.020001046 0.029322686 0.020397266
000180 9e 86 33 3d 48 02 b1 3c 87 83 8c bd 37 35 4b 3d
       0.043829553 0.021607533 -0.06861024 0.049611297
000190 3d 9d 52 3d 0e f7 9f 3d 68 4c b6 bc 0a a5 56 bd
       0.051419485 0.07810794 -0.02225323 -0.052403487
0001a0 1e 1f 6a 3d 47 6d 8d 3d 50 b4 3a 3d 17 42 88 3d
       0.057158582 0.069056086 0.045582116 0.06653231
0001b0 d9 22 1e 3d f9 fb 8c bd 50 f0 8a bc c9 3f 4c 3d
       0.038607452 -0.068839975 -0.016960293 0.049865518
0001c0 59 49 20 3d 0e 18 e6 bc 8e 36 5c bd d5 a2 a2 bd
       0.03913245 -0.028087642 -0.053762965 -0.07941214
0001d0 e8 1c 89 bd 56 ca eb bb a1 05 83 3d 5e c9 ee bc
       -0.066949666 -0.007195751 0.06397558 -0.029148754
0001e0 6d e0 bb 3c 4f f2 92 bc 7b f4 8f 3d f7 6e cf 3d
       0.022934163 -0.017937807 0.07029053 0.10128587
0001f0 46 66 45 3d 0b 3a 59 3d 3b 85 8b bd d1 d8 5a bd
       0.04819324 0.05303387 -0.06812521 -0.05342943
000200 c6 5a eb bd 76 b8 f7 3c 5b fc 96 bc 68 f2 96 bd
       -0.11491923 0.030239325 -0.01843088 -0.07370454
000210 73 61 69 3c 42 69 2c 3c 3f f4 ab bd dd 2a 12 bd
       0.014244425 0.010523142 -0.083961956 -0.03568541
000220 46 c9 ff bb c7 57 a1 3d 66 f4 28 3d 45 6e 3f bc
       -0.007805976 0.0787807 0.0412487 -0.011684005
000230 5d fb c2 bc 6b 1d 8c bd 82 29 f7 3c d4 63 4e 3c
       -0.0238015 -0.068415485 0.03017116 0.012597043
000240 ba 2b 87 bc ea a1 35 3d 5b 71 5d bc f4 bf ef 3b
       -0.016500343 0.044343866 -0.013515796 0.007316584
000250 d0 9a 84 3d 15 71 8f 3d 4c 8a 64 bc 3b 2e cf 3c
       0.06474841 0.070039906 -0.013948988 0.0252906
000260 2f a5 a2 bd 03 cc ab 3d 9d 7e 1a bd 04 1f 31 bc
       -0.079416625 0.083885215 -0.037718404 -0.010810617
000270 0e 53 90 3c 87 4f 08 bd d8 32 99 3d 1e 97 32 3d
       0.017617729 -0.03327897 0.07480401 0.043601148
000280 cf b5 3e bd 8d f2 72 bd be 69 c1 bb ce 90 ac ba
       -0.046560105 -0.059313346 -0.005902498 -0.0013165714
000290 dc ef 9f bb 98 6e 18 3d 6c 91 00 3d 68 96 29 3d
       -0.0048808884 0.037214845 0.031388685 0.041403204
0002a0 41 c6 0e bc d0 b3 b6 3d 58 99 77 bd 8e 08 8e bb
       -0.00871426 0.08921015 -0.060448974 -0.004334516
0002b0 d4 19 c5 bc c9 89 bf 3d bb d1 a6 ba b5 f5 a7 bc
       -0.024060167 0.09352452 -0.00127273 -0.020502904
0002c0 bf ad 80 bb 95 06 87 bd 82 0b b0 3d 39 65 04 3b
       -0.003926962 -0.06593052 0.08595945 0.0020201935
0002d0 48 6a 13 3c 9c 09 90 bc 8b 18 28 3d dd 66 5c bc
       0.008997507 -0.017582707 0.04103903 -0.013452259
0002e0 ae c5 9a 3c 44 db c4 bd 25 25 a6 3d 8f 40 49 bd
       0.01889309 -0.09612134 0.081125535 -0.049133833
0002f0 6c 75 42 3d 4b ef 16 bd 5e 4d a5 3d 55 0d 96 3d
       0.047475263 -0.0368493 0.08071397 0.07326762
000300 83 75 58 3d 03 9c 2d 3d c1 07 31 3d 7c 70 87 3d
       0.052846443 0.042385112 0.043220285 0.066132516
000310 7b eb 4c bc 9d 68 1b 3d ac c2 19 3d 14 78 5b bc
       -0.012507315 0.037941564 0.03753917 -0.013395328
000320 f7 ae 64 3d 8a 96 77 bc b8 11 e0 3c da fc 17 bd
       0.055830922 -0.015111575 0.027352199 -0.037106372
000330 88 85 be 3d 4c f2 cb bc a0 25 b3 3d c4 d0 b4 bc
       0.09302813 -0.02489581 0.08747411 -0.022072203
000340 7c ec 28 bd 02 cc c3 bc 70 1a d6 bc 2d 3b 50 bd
       -0.041241154 -0.02390099 -0.026135653 -0.050837684
000350 e4 4d 3e 3d fe 1b 36 bd 4b ef 88 bd e5 ce 0f bd
       0.046461 -0.04446029 -0.066862665 -0.03510942
000360 2f 54 86 bd a4 50 c9 bc e0 22 93 3d d7 67 a4 3d
       -0.065590255 -0.024574585 0.07184386 0.080276184
000370 73 2a 90 bc 2b 5d 98 3d 32 8f 3b 3d bc c9 52 bd
       -0.017598366 0.074396454 0.04579086 -0.05146192
000380 89 77 c2 3c c7 1d d2 bc c6 a8 9c 3d 47 7b 3d bd
       0.02373864 -0.025648965 0.076493785 -0.046260145
000390 c1 fe ab bd f6 c3 3e bd 9b 87 fe 3c a5 45 97 3c
       -0.083982 -0.0465736 0.031070521 0.018465826
0003a0 af 3a 1e bd fd 23 91 3d 20 1b 80 3d 1e 83 12 bd
       -0.038630184 0.07086942 0.06255174 -0.035769574
0003b0 96 65 bb bd f4 02 8a bc 0e ad 5c 3d 98 35 8a 3c
       -0.09150235 -0.016847111 0.053875975 0.016871259
0003c0 30 a7 bf 3c 1b 65 97 bd 8c 70 32 bd 48 60 7f 3c
       0.02339515 -0.07392331 -0.043564364 0.01558692
0003d0 c8 94 ca bb 67 60 c0 bc 88 60 95 3d 99 e6 84 3d
       -0.006182287 -0.023483468 0.072938025 0.064892955
0003e0 af 1e 10 3c 97 6f 06 3d 55 98 53 bd 83 07 68 3c
       0.008796378 0.032821264 -0.051658947 0.014161947
0003f0 d0 7a 58 bc bb a6 d9 bc 82 11 25 bc f6 62 d4 3c
       -0.0132128745 -0.026568761 -0.010074975 0.025926095

cnn_layer.15.weight f4 [16]
000000 94 f7 7d 3f f4 0a 81 3f 05 07 80 3f 20 3d 80 3f
       0.992059 1.0081468 1.0002142 1.0018654
000010 78 2e 82 3f 44 c8 7c 3f 51 af 84 3f 75 d9 7a 3f
       1.0170431 0.9874308 1.0366002 0.97988063
000020 33 84 80 3f d0 39 7a 3f e1 07 82 3f b3 d6 7e 3f
       1.0040344 0.97744465 1.0158654 0.99546355
000030 a0 f2 85 3f 4e 39 81 3f 75 c5 7e 3f a3 08 7e 3f
       1.0464668 1.0095613 0.99520046 0.9923193

cnn_layer.15.bias f4 [16]
000000 50 ff 3c bc 9c d1 90 bc b4 47 13 bb 2c be fb bc
       -0.011535481 -0.017678075 -0.0022473158 -0.03073033
000010 ec c8 0a bc b0 b7 53 bc b2 e8 50 bd df 2c 80 bc
       -0.008470755 -0.0129222125 -0.051003166 -0.015646396
000020 69 0c bf bc 61 02 b8 ba 04 74 e5 3b a5 f5 d6 bb
       -0.023321347 -0.0014038795 0.0070023555 -0.006560045
000030 c8 1b 39 bc d3 8a 9a 3c 70 90 b9 bc 94 9d 4d bc
       -0.0112981275 0.018865025 -0.022651881 -0.012549777
